data_model.pth (torch, 52456 bytes, 4 tensors)

l1.weight f4 [16, 317]
000000 43 76 32 3e 95 07 38 40 bb cc 96 40 14 aa 8c 40
       0.17427926 2.8754628 4.7124915 4.3957615
000010 bf c9 89 40 9e ae 8e 40 81 c8 9b 3e e2 8f 2f 3f
       4.305877 4.4588156 0.3042641 0.6857892
000020 5c d1 3e 40 d0 49 d6 3f 2e a6 1e 40 dd 21 a1 40
       2.9815283 1.6741276 2.4788928 5.0353837
000030 1f 40 58 bc d6 c8 b2 40 de 9d 6c 3f 77 a1 cd 3f
       -0.013198881 5.587016 0.92428386 1.60649
000040 73 0e b1 3f 8b 49 b7 3f 8c bd 7d 40 40 41 c6 3f
       1.3832535 1.4319319 3.964694 1.5488663
000050 78 72 52 3f ab 72 3f 3d 12 70 99 bf b0 17 20 3c
       0.82205915 0.046740215 -1.1987326 0.009771273
000060 39 02 59 3f 4f 9d 54 40 af da f7 3f 99 72 93 40
       0.84769017 3.3221014 1.9363612 4.607739
000070 ae de c9 be 14 9d 22 3f e7 02 70 40 70 64 ca 3f
       -0.39427704 0.6352093 3.7501771 1.5811901
000080 7b a9 ba be 15 45 d0 be 3b 64 c3 bf 22 25 92 3f
       -0.36457428 -0.40677705 -1.5264963 1.1417582
000090 f3 8a 36 40 82 0f ad 40 81 dd cf 3f c6 f2 8f 40
       2.8522308 5.408143 1.6239473 4.4983854
0000a0 28 c8 c0 3f db 00 53 40 88 1b 25 3e c8 70 c8 be
       1.5061083 3.2969272 0.16123784 -0.39148545
0000b0 60 d0 81 40 2c 50 90 40 ba d7 de 3f f1 e5 04 41
       4.0566864 4.5097866 1.7409585 8.306138
0000c0 44 58 ba 3f 3d 05 ac 3e 23 24 c9 3e 19 7a 54 3f
       1.4558187 0.33597746 0.39285383 0.82998806
0000d0 27 17 a3 40 68 8a 98 40 27 6f cc 40 03 1f 9a 3f
       5.096576 4.7668953 6.3885684 1.2040714
0000e0 9c a1 94 3e 8c 21 2e 40 fe b3 c7 40 f1 a4 94 3e
       0.29029548 2.7207975 6.2407217 0.2903209
0000f0 02 b5 df 3f a6 d2 95 3e 4f da d8 3f 15 f7 ba 3f
       1.7477114 0.29262275 1.6941622 1.4606653
000100 56 c6 be 3e e1 45 ff 3f 16 bd 36 40 7c 7c dc 3f
       0.37260693 1.99432 2.855291 1.722549
000110 f1 4a 38 40 08 22 fd 40 58 62 43 40 f7 f6 50 3f
       2.879574 7.910404 3.0528774 0.8162684
000120 6c c9 84 bd 3c a9 cc 3e 62 db ed 40 17 a8 99 3e
       -0.06483731 0.39972866 7.43303 0.30011055
000130 fb 90 a5 40 c1 90 66 40 b7 53 67 3f 51 fa 3d 3f
       5.173948 3.602585 0.90362114 0.7421008
000140 f0 7f 83 40 7b 05 78 40 70 87 08 40 1f a2 00 40
       4.1093674 3.8753345 2.1332664 2.009895
000150 e0 58 78 40 d8 41 e8 3f 22 21 91 3f 71 ec 2a 40
       3.8804245 1.8145094 1.1338236 2.6706812
000160 a0 eb ba 3f ee 27 06 40 89 fc c6 3f 5a 11 13 40
       1.4603157 2.096187 1.5545818 2.297934
000170 0f a7 79 40 05 24 e2 3e 14 5c c2 3e 6b 6e 6b 40
       3.9008214 0.44168106 0.37960875 3.6786144
000180 b9 ac b5 3f b0 7b c2 3e 89 4a 88 3f a5 0d 55 40
       1.4193336 0.3798499 1.0647746 3.3289578
000190 c3 2d c4 3e 29 6e 05 40 6f b8 2a 40 38 9f 03 40
       0.38316163 2.0848486 2.667507 2.056593
0001a0 c0 3a 8c 40 5f 54 8e be 41 db d6 bf 2b 6c d7 3f
       4.3821716 -0.27798745 -1.6785661 1.6829885
0001b0 89 8f c1 3f b8 d8 9d 3e b8 59 de 3c c1 b0 8e 3f
       1.5121928 0.30829406 0.02714239 1.1147691
0001c0 7f 75 d2 40 73 f8 1c 3f 75 17 56 3f c1 fc 4e 40
       6.576843 0.61316603 0.8362954 3.2341769
0001d0 a3 39 93 40 48 5a ab 40 48 5b 61 3f 79 d9 5c 3f
       4.6007857 5.3547707 0.8802991 0.86269337
0001e0 c6 30 e0 3e 69 81 ca bf 7d 20 e4 3f df 84 98 3f
       0.4378721 -1.5820743 1.7822415 1.1915549
0001f0 ef db 58 be b5 db 28 40 a9 18 93 40 9c 85 4b 3f
       -0.21177648 2.6384099 4.5967603 0.79500747
000200 4e 22 39 40 9a 48 02 40 11 a4 59 be 62 32 0f 40
       2.8927188 2.0356812 -0.21253993 2.2374501
000210 b7 13 2b 40 1c 16 47 3f 4a e6 b6 3e af e2 ed 40
       2.6730783 0.7776811 0.35722572 7.4339213
000220 71 9e 48 bd 83 e5 fa be 94 68 63 bd 92 f5 37 bd
       -0.048979226 -0.4900323 -0.055519655 -0.04491193
000230 e4 99 2e 40 3b 67 88 bf e9 61 59 3f 9c 43 cc be
       2.7281427 -1.0656503 0.84915024 -0.39895332
000240 7b 8c e4 be db 97 34 3f a5 3f ba 40 3b 1c 6e 40
       -0.44638428 0.70544213 5.820269 3.720473
000250 73 93 69 40 5f d7 62 40 f1 88 9e 3e 05 14 d8 40
       3.6496246 3.5443952 0.30963853 6.752444
000260 4c 76 11 40 dc dc 23 3f 9f 01 21 3b c4 41 af 3e
       2.2728453 0.6400888 0.0024567617 0.34229863
000270 c1 9c 42 3f 67 23 de 40 b0 66 90 40 c3 6e b5 3f
       0.7602044 6.9418216 4.512535 1.4174427
000280 ed b4 4b 3f 7f 4f 92 3f c2 23 88 3f 7b 1c ac 40
       0.79572946 1.143051 1.0635912 5.3784766
000290 d7 98 4d 3f 2f e8 a5 40 ab 66 73 3f 01 8b a4 40
       0.8031134 5.1845927 0.95078534 5.1419683
0002a0 6d a0 a2 3e d5 ed 2c 40 28 5d 61 3f 05 67 31 3f
       0.3176302 2.702016 0.8803277 0.6929782
0002b0 0a 81 93 be 37 eb b7 3e 67 3d 11 40 f4 85 e8 3f
       -0.28809386 0.35921642 2.2693727 1.8165879
0002c0 fc a2 44 40 83 59 70 40 06 66 e0 3f 39 c1 e4 3f
       3.0724478 3.7554634 1.7531135 1.7871467
0002d0 40 6a 25 40 88 85 48 40 8c 20 e1 be a3 e9 c3 3f
       2.58461 3.13315 -0.43970144 1.5305675
0002e0 4a ca 66 40 f9 2c 71 3f 40 d2 e9 3f 92 47 39 bd
       3.6060967 0.9420925 1.8267288 -0.04523427
0002f0 47 65 c8 3f 02 3a e4 3f 96 b8 8f 40 82 ff 32 3f
       1.5655907 1.7830203 4.4912825 0.69921124
000300 70 55 57 3e bb 31 4c 3f f9 b6 a6 40 1e ea db 3f
       0.21028686 0.7976338 5.2098355 1.7180822
000310 94 c5 70 3f 98 42 89 3f f0 a5 ad 3f ca ba d4 40
       0.9405148 1.0723448 1.3566265 6.6478014
000320 47 ca 8d 3f 13 31 2d 40 7b 2a 2c 40 b7 a0 37 3f
       1.1077355 2.7061203 2.6900928 0.71729606
000330 45 e7 dc 3e 0e b0 0e 3e f5 64 a8 3f da 89 55 40
       0.43145195 0.13934347 1.315581 3.3365388
000340 be f2 37 bf 59 ca 00 3f 17 12 1c 40 8e b3 64 3f
       -0.7185477 0.5030876 2.438604 0.8933648
000350 77 a4 c0 40 61 52 75 3e 18 ef 75 3f 15 17 97 3f
       6.0200763 0.23957206 0.96067953 1.1803919
000360 14 44 22 40 4a 36 46 3d 40 69 5c 40 ac 87 0e bf
       2.5354052 0.048391618 3.443924 -0.5567577
000370 a2 0f 0f bf df cc 14 40 c7 64 36 3f 92 7f 83 40
       -0.5588323 2.3250043 0.71247524 4.1093225
000380 ff 3a 9a 40 e4 ef 24 be 2e 65 96 3f b9 67 18 41
       4.8197017 -0.16107136 1.1749628 9.525323
000390 6a f6 9c 3f a8 ad 01 41 60 92 6b 40 cf 4d a7 be
       1.22627 8.104897 3.680809 -0.3267655
0003a0 25 b7 d7 3f 4e e7 63 c0 cd ba 71 40 ab 7f 92 3e
       1.6852766 -3.5609927 3.7770264 0.28613028
0003b0 f1 58 b2 3e 7c db aa 3f 90 9f dc 40 62 78 d4 3f
       0.34833482 1.3348231 6.894478 1.6599238
0003c0 51 97 cf be 75 9c 8c 3f f9 da 28 40 48 a7 c9 3e
       -0.40545133 1.0985247 2.638365 0.39385438
0003d0 63 02 32 3f f8 45 82 40 d0 f7 0f 3e ab 8d 3b 3f
       0.6953489 4.071041 0.14059377 0.73263043
0003e0 5c 05 db 3f 6c 00 04 40 b5 c8 b3 40 aa 24 61 3f
       1.711101 2.0625257 5.6182504 0.8794657
0003f0 2c 15 67 3f 15 8e 04 40 7a f7 e2 3e 27 88 6a 40
       0.9026668 2.071172 0.44329435 3.66456

l1.bias f4 [16]
000000 6e de 0e 40 e3 34 a6 3f d9 83 90 3f 53 3e 0a 40
       2.232326 1.298489 1.1290237 2.160054
000010 d1 0c 6f 3f 98 9e 72 3f 14 69 36 3f 9e 64 aa 3f
       0.9337893 0.94773245 0.71254086 1.3311956
000020 07 ab 9c 3f 52 36 55 3f f6 8c 40 3f 8a 4c 9b 3f
       1.2239693 0.8328601 0.7521509 1.2132733
000030 2d 07 81 3f 62 a2 b1 3f 7a cd 2d 3f 72 de c4 3f
       1.0080315 1.387768 0.6789166 1.5380385

l2.weight f4 [250, 16]
000000 40 25 45 bf 7d ea 4f c0 21 cd b6 bf 99 95 15 be
       -0.77009964 -3.248687 -1.428135 -0.14607848
000010 d3 82 8b c0 6e 8b f0 be dd 0e db bf 2f 23 4f bf
       -4.3597198 -0.46981376 -1.7113911 -0.8091306
000020 41 7a 13 bf db fe 43 c0 fe 57 62 c0 eb bf 7f c0
       -0.5760842 -3.0624301 -3.5366206 -3.9960887
000030 f0 c5 77 be d9 af 5b c0 ac 4b bc bf 1e ea 58 3c
       -0.24196601 -3.432608 -1.4710593 0.013239412
000040 10 ba 8f bf 81 53 93 c0 47 43 ae bf d0 78 9e 3d
       -1.1228657 -4.6039433 -1.3614281 0.07737887
000050 b9 51 a8 c0 99 6f 10 bf 2a 85 d4 bf ff 6f 15 c0
       -5.259976 -0.56420285 -1.6603138 -2.3349607
000060 67 a2 bc bf d5 81 b4 bf 40 41 96 c0 3f 05 56 bf
       -1.4737061 -1.4102122 -4.695465 -0.83601755
000070 75 29 f0 be f7 55 fa be 4d 1d 67 c0 c6 49 2c bf
       -0.4690663 -0.4889371 -3.6111634 -0.6730007
000080 ec 69 bf bf 72 2b a5 bf 45 6e 9c c0 3e 1c 26 be
       -1.49542 -1.2903883 -4.8884606 -0.16221711
000090 0b 8e 9a c0 7d 0e d5 be 7e 81 05 bf ef c5 0c bf
       -4.829839 -0.41612616 -0.52150714 -0.5498952
0000a0 32 e8 94 bf 22 b2 9a bf c9 08 88 c0 56 d4 bc bf
       -1.163336 -1.2085612 -4.2510724 -1.47523
0000b0 f7 13 cf bf 3a 3f c7 bf 98 f9 90 c0 fe 10 5c bf
       -1.6177968 -1.556617 -4.530468 -0.8596343
0000c0 9c 93 83 3e 5b e4 65 be d3 95 08 c0 19 d0 ba bf
       0.25698555 -0.22450392 -2.1341445 -1.4594756
0000d0 20 cf 3b c0 18 4b b9 c0 d4 25 b4 bf 3a 33 ac bf
       -2.934517 -5.7904167 -1.4074044 -1.3453133
0000e0 53 a3 3e bf f6 01 82 c0 99 14 b1 bf d5 32 ca be
       -0.74467963 -4.0627394 -1.3834411 -0.39491907
0000f0 a7 5e ae c0 c4 18 9f bf ca 4c ad be 74 6b 2c c0
       -5.4490542 -1.2429433 -0.33847648 -2.6940584
000100 a5 66 46 bf cb 4c 1d 3e 21 8f 02 c0 be a5 76 c0
       -0.77500373 0.15361325 -2.039986 -3.853866
000110 e6 68 76 c0 2c 30 51 c0 19 80 33 bf ae fb b0 bf
       -3.8501525 -3.2685652 -0.70117337 -1.3826807
000120 52 e9 7a bf 2f 71 16 c0 d2 9f 83 bf 4b 7b 66 3d
       -0.9801227 -2.3506582 -1.0283148 0.056269925
000130 cc 2c d1 bf 9b ed 62 c0 17 5d a2 be b3 6b 61 c0
       -1.6341796 -3.5457523 -0.31711647 -3.5221984
000140 72 c4 1a c0 6a 40 ed bd ca 64 b8 bf cf 5a 3b c0
       -2.41824 -0.11584552 -1.4405758 -2.9274175
000150 be 08 99 c0 4c cf 53 c0 d9 65 08 c0 fc d4 c9 bf
       -4.782317 -3.3095274 -2.1312163 -1.5768123
000160 2a 2a 40 bf 23 5b 03 bf b5 4f 86 c0 6f 22 fc 3e
       -0.7506434 -0.5131094 -4.19723 0.4924502
000170 55 cb 88 c0 c3 42 7c c0 ac 93 db 3e 3d a8 6b be
       -4.274821 -3.9415748 0.42886102 -0.23013397
000180 e0 6b 9f bf e6 be 84 be c0 ee 25 c0 54 93 91 c0
       -1.2454796 -0.25926894 -2.5926971 -4.5492344
000190 96 94 0e c0 d6 b1 2b c0 98 16 e3 be 76 ad 0e bf
       -2.227819 -2.6827292 -0.44353175 -0.5573343
0001a0 49 c2 96 bf 66 c6 8c c0 c5 88 60 c0 c4 26 f8 be
       -1.1778041 -4.3992186 -3.5083477 -0.48467076
0001b0 8d fe 28 c0 a5 50 74 c0 5d 8a 0b bf e5 f7 03 bf
       -2.6405365 -3.8174222 -0.54508 -0.5155013
0001c0 7d 61 10 bd ad d5 ea bf 15 3d 13 c0 3c 84 a1 be
       -0.035249222 -1.8346459 -2.3006032 -0.315462
0001d0 df 6e 47 c0 aa 35 28 c0 97 09 49 bf 8a f0 84 bf
       -3.116142 -2.6282754 -0.7853026 -1.0385907
0001e0 1b 60 be c0 e6 d0 34 c0 53 e5 db be ce ee 82 bf
       -5.9492316 -2.8252501 -0.42948398 -1.0229127
0001f0 1b 3e c6 c0 66 34 20 3f 43 e3 11 bf 0f a9 98 bf
       -6.195081 0.62579954 -0.569874 -1.1926593
000200 7f 0e 8c bf 2b a1 15 bf ab 8b 2e c0 1e 90 e6 bf
       -1.0941924 -0.5844905 -2.7272747 -1.8012731
000210 81 55 92 c0 f7 08 fe bf 5f a1 a3 be d7 8f 58 c0
       -4.5729375 -1.9846486 -0.31959054 -3.3837793
000220 04 70 72 c0 5c 05 01 c0 12 32 7e bf 37 a2 27 bf
       -3.788087 -2.015952 -0.9929515 -0.65481895
000230 4c 53 15 c0 35 45 5c be 61 00 fd be 7b b1 a3 bf
       -2.333209 -0.21510775 -0.49414352 -1.2788538
000240 29 66 2a c0 3a 23 42 bf b6 56 c3 bf 8f 53 3a bf
       -2.6624854 -0.75835 -1.5260837 -0.7278375
000250 40 91 ab c0 cb 23 74 bf 98 cd 19 bf 12 48 8e c0
       -5.3614807 -0.95367116 -0.60079336 -4.4462976
000260 c8 24 90 c0 3e 9f a7 be 2a 47 a3 c0 17 31 01 3f
       -4.50449 -0.3273868 -5.102437 0.5046553
000270 40 f4 95 c0 70 a8 ac be df 87 8c bf a5 af 8d 3e
       -4.6860657 -0.33722258 -1.0978965 0.2767307
000280 ef 24 53 bf d0 8f f5 be b3 e0 50 c0 0b be 0b c0
       -0.8247823 -0.47961283 -3.2637146 -2.1834743
000290 e3 5e 02 c0 fa fa ce bf ba 49 93 3d 64 47 49 bf
       -2.0370414 -1.6170342 0.071917966 -0.7862456
0002a0 0f 44 a7 c0 ea 10 9f c0 0c 92 7d c0 99 d9 f5 be
       -5.227058 -4.9708147 -3.962039 -0.48017576
0002b0 0a c3 85 c0 fe f0 b2 bd be 4d b8 bf bc c7 3a be
       -4.1800585 -0.08737372 -1.4398725 -0.18240255
0002c0 f6 6c bc bd 95 19 96 c0 70 34 48 c0 18 3c 6a be
       -0.0920047 -4.690623 -3.1282005 -0.22874486
0002d0 24 4f 7a c0 db f8 2d bf d4 b8 d1 be ae 8f a3 bf
       -3.9110804 -0.6795785 -0.40961325 -1.2778223
0002e0 67 01 92 bf df 47 e3 be 22 4b dc bf 4c fd 79 c0
       -1.1406678 -0.4439077 -1.7210429 -3.906085
0002f0 c5 a0 d7 bf 30 fd 68 c0 29 df ac be 5f bd 94 bf
       -1.6845938 -3.6404533 -0.33764008 -1.1620291
000300 fb e1 60 3f d7 e4 a9 bf fa ab 1f c0 7c 55 ad 3e
       0.8784482 -1.3272961 -2.4948716 0.33854282
000310 1c 3a 19 c0 2a 6d d0 bf 45 03 dc bf 3e 38 a8 bf
       -2.3941717 -1.6283314 -1.7188498 -1.3142164
000320 87 3b 94 bf 63 57 92 c0 47 73 02 c0 92 21 35 c0
       -1.1580666 -4.5731673 -2.038286 -2.830174
000330 eb 95 7e c0 61 db ca bf ea 77 06 bf 3a 27 7c c0
       -3.9779003 -1.5848199 -0.52526724 -3.9398942
000340 97 93 8a bf c1 24 fc be e5 3d 02 c0 ed f2 18 c0
       -1.0826291 -0.4924679 -2.0350277 -2.389827
000350 ee 4b 35 c0 09 ef ab bf 9d 89 b4 be 26 0b f8 bf
       -2.8327594 -1.3432323 -0.3526124 -1.9378402
000360 80 e8 0d bf 25 58 34 c0 6c c7 a8 bf db 99 cc bf
       -0.5543289 -2.81788 -1.3185859 -1.5984453
000370 46 9c c7 bf 4a 9d 36 c0 b8 c6 1c be 9b ab 94 c0
       -1.5594566 -2.8533502 -0.1531018 -4.645948
000380 f8 c8 18 c0 e1 d6 af bf cc 54 dc bf 25 3b a4 3e
       -2.3872662 -1.3737451 -1.7213378 0.32076374
000390 8d 4b 5b c0 2b 4d fb be 7a ad 11 c0 d0 ac 23 c0
       -3.4264863 -0.49082312 -2.2762132 -2.5574226
0003a0 52 ad ef 3e 3e e2 0a c0 a9 e6 99 c0 92 07 83 bf
       0.4681192 -2.1700587 -4.8094068 -1.0236685
0003b0 f7 a1 62 c0 fa 3f c6 c0 a7 6c e3 be c1 b8 8d bf
       -3.5411355 -6.1953096 -0.44418833 -1.1072007
0003c0 06 ba a7 bf b1 0d 1d bf 90 b9 1c c0 c6 2a 08 c0
       -1.3103645 -0.61349016 -2.4488258 -2.1276107
0003d0 85 d0 03 c0 30 e1 58 bf b8 31 f6 be 72 f1 0b bf
       -2.059602 -0.8471861 -0.48084807 -0.5466529
0003e0 a2 f7 99 bf 77 75 96 c0 78 07 48 c0 6a e6 e5 bf
       -1.2028697 -4.701839 -3.1254559 -1.7960942
0003f0 2c 12 0c c0 10 24 83 c0 3e 3b c6 bf 82 4d 93 bf
       -2.1886091 -4.098152 -1.5486829 -1.1508029

l2.bias f4 [250]
000000 fa bc fa bf d1 15 c4 bf 52 db 1c bf 8e 68 cf bf
       -1.9588921 -1.5319158 -0.61272156 -1.6203783
000010 ef bf 0b bf 68 e1 d0 bf 68 4b a5 bf d1 40 84 bf
       -0.5458974 -1.6318789 -1.2913637 -1.033228
000020 a5 76 d0 be 47 40 a3 bf e2 41 06 bf 2a 0c 5a bf
       -0.4071552 -1.2753991 -0.5244428 -0.8517481
000030 5a 67 12 c0 ab f5 11 c0 85 90 66 c0 7e e3 18 c0
       -2.287558 -2.2806194 -3.6025708 -2.388885
000040 53 96 98 bf 91 3a 8e be bc 23 1f c0 7a d8 71 bf
       -1.1920875 -0.27779058 -2.486556 -0.9447094
000050 5c 40 00 c0 20 34 a1 bf ae f5 d4 bf 2b 65 b6 bf
       -2.0039282 -1.2594032 -1.6637475 -1.4249624
000060 ea 16 06 c0 58 2d 3d bf ca ef 12 be 11 f7 2c bf
       -2.0951486 -0.73897314 -0.14349285 -0.67564493
000070 39 8e 84 be bc 81 76 bf 9d 7a 8e bf ce f6 8d be
       -0.25889757 -0.9629171 -1.1131169 -0.2772736
000080 58 a7 6b bf 25 fa 0a bf 5a f2 d2 bf 89 c8 14 bf
       -0.9205222 -0.5428794 -1.648021 -0.5811849
000090 0d f8 ed bf b3 eb 80 bf 02 49 12 c0 8d eb 45 bf
       -1.8591324 -1.007193 -2.285706 -0.77312547
0000a0 5e 0c b1 bf f4 d4 10 c0 e0 f8 a2 be df ef a3 be
       -1.3831899 -2.2629976 -0.31830502 -0.32018945
0000b0 19 83 94 bf bb 27 98 be 59 24 41 be b9 39 ad be
       -1.1602508 -0.29717812 -0.18861522 -0.338331
0000c0 d9 3b bc bf 89 3e 38 be 34 d6 9e bf 8c dd 1b c0
       -1.4705764 -0.17992605 -1.240912 -2.4353971
0000d0 2b 5f ca be 02 b1 53 bf 5d 5a a4 bf 55 3c de be
       -0.39525732 -0.8269197 -1.2840077 -0.43405405
0000e0 40 7c 87 bf af 0f 57 bf f6 52 5c be 36 06 13 c0
       -1.0584793 -0.84008306 -0.21516022 -2.297254
0000f0 a9 a0 ab bf 15 24 c0 bf 91 58 eb bf 2d c4 f2 3c
       -1.3408405 -1.5011011 -1.8386403 0.02963456
000100 09 b0 c2 bf e6 83 51 bf d5 08 89 3e 55 66 b6 bd
       -1.5209972 -0.81841886 0.2676455 -0.08906237
000110 6a b0 37 c0 d1 b8 c1 bf 52 19 32 c0 ba 60 1c c0
       -2.8701425 -1.5134526 -2.7827954 -2.4434037
000120 b7 8c 0b c0 a2 c8 0b c0 00 af 4d c0 04 c6 21 c0
       -2.1804636 -2.1841207 -3.2138062 -2.527711
000130 80 98 23 c0 2a 2c fe bf 7c e3 46 c0 8b e7 2a c0
       -2.5561829 -1.9857228 -3.1076345 -2.6703823
000140 80 1b 84 3c 3c 0d ad bf 75 af 0e be 42 2f 17 c0
       0.016126394 -1.3519664 -0.13934119 -2.3622594
000150 a7 78 28 be 9a 1e a7 bf 32 34 23 3e 70 0d 06 c0
       -0.16452275 -1.3056214 0.1593788 -2.0945702
000160 61 d5 12 c0 48 14 e1 bf 5e 32 2a c0 e3 29 0e c0
       -2.2942736 -1.7584314 -2.6593242 -2.2213066
000170 b6 29 b6 bf fd e6 21 bf 3d 34 ab bf 8b 23 f9 bf
       -1.4231479 -0.63243085 -1.3375317 -1.9463972
000180 a3 33 80 3f ba 93 21 c0 fc 3c 1b bf c9 75 25 c0
       1.0015758 -2.5246415 -0.6063993 -2.585314
000190 2f be 37 bf b9 bd 56 c0 1e d0 69 bf 4b 24 64 c0
       -0.7177457 -3.3553298 -0.91333187 -3.5647151
0001a0 a2 90 12 c0 da 90 22 c0 04 8d bb bf 86 b9 15 c0
       -2.2900777 -2.540091 -1.465241 -2.3394485
0001b0 4f 66 10 c0 14 39 0c c0 23 65 86 bf aa fb 23 c0
       -2.2562444 -2.1909838 -1.0499614 -2.5622354
0001c0 a2 26 cd bf 28 48 41 c0 aa 9d 93 bf 8b 9d 03 c0
       -1.6027415 -3.020029 -1.153249 -2.0564907
0001d0 fd 86 0a c0 59 80 d7 bf b2 79 2c be 0e 76 17 c0
       -2.164489 -1.6836044 -0.16843298 -2.3665805
0001e0 74 7f e1 bf e6 82 3c c0 03 7e 30 c0 fe af 4d bf
       -1.7617021 -2.9454894 -2.7576911 -0.8034667
0001f0 b0 55 a2 3d 64 1e 7f bf da 55 08 bf 9b 69 c9 bf
       0.079265 -0.9965575 -0.53256 -1.5735353
000200 3b 1a 3e bf dc d4 8d bf 4e 10 93 bf 87 4e b3 bf
       -0.74258775 -1.1080585 -1.1489351 -1.400834
000210 b7 a6 80 be 97 bd ac bf cc bc 85 bf 82 47 77 bf
       -0.25127193 -1.3495358 -1.0448241 -0.9659349
000220 77 1f 83 bf 1b 56 79 bf 60 b9 d2 bf ac 65 38 bf
       -1.0243977 -0.9739701 -1.6462822 -0.7203014
000230 60 2f bb bf f9 59 bf bf f5 89 14 bf 20 38 95 bf
       -1.4623833 -1.4949332 -0.58023006 -1.1657753
000240 fe 61 85 bf 1d 3e 76 bf 6b 3c b8 be 95 e4 05 c0
       -1.042053 -0.9618853 -0.35983595 -2.0920765
000250 48 5d d5 bf 08 4f 45 bf 3d f3 b3 bf 5c a8 9c bf
       -1.6669092 -0.7707372 -1.4058605 -1.2238879
000260 8c 53 8e be 50 0f bc bf dc cf 9c bf 03 2e ff bf
       -0.27798116 -1.4692173 -1.2250934 -1.9935917
000270 cf df b1 bf 70 bf 04 bf 03 e5 a8 bf 79 3e dc bf
       -1.3896426 -0.5185461 -1.3194889 -1.7206565
000280 03 ea 03 c0 68 8b 8d bf e4 1e e0 bf 89 80 ee bf
       -2.061158 -1.1058168 -1.7509427 -1.8632976
000290 09 c4 b7 bf 65 c6 bf bf 04 4c 0f c0 f6 2e a0 bf
       -1.43567 -1.498242 -2.2390146 -1.2514331
0002a0 99 cf 55 c0 cd af b4 bf 89 34 d7 bf c3 c5 90 bf
       -3.3407958 -1.411615 -1.6812907 -1.1310352
0002b0 aa 05 f4 bf 4d e1 14 c0 37 74 72 bf 9f 44 3c be
       -1.9064229 -2.3262513 -0.9470858 -0.18385552
0002c0 24 0d 00 c0 e7 1e 32 bf bc 91 e8 bf 2a d3 9b bf
       -2.000802 -0.69578403 -1.8169475 -1.2173817
0002d0 13 24 17 c0 f5 e6 bb bf 63 86 f9 be 31 31 5e be
       -2.3615768 -1.4679857 -0.4873534 -0.21698453
0002e0 54 92 ae bf 78 b9 9c be e8 9e 97 bf ff d1 cf bf
       -1.3638406 -0.3061025 -1.1845369 -1.6235961
0002f0 89 ed fd be 6a e3 b9 bf 64 84 8e bf bf 14 89 bf
       -0.49595287 -1.4522526 -1.1134152 -1.0709456
000300 ed a6 f5 bc 64 ab 87 bf 0c 21 7e bf 69 5c aa bf
       -0.029986823 -1.0599179 -0.99269176 -1.3309451
000310 44 20 87 bf d0 b7 03 c0 2f 59 b3 bf 08 41 ba bf
       -1.0556722 -2.058094 -1.4011592 -1.4551096
000320 2b d9 40 be 54 44 81 bf 4b b6 33 c0 94 e5 d9 bf
       -0.18832843 -1.0098977 -2.8080013 -1.7023187
000330 98 16 88 c0 2e 2b 2b c0 12 2d c7 bf 99 5e 39 bf
       -4.252758 -2.6745105 -1.5560629 -0.7240997
000340 c1 9d dd bf 98 c7 b7 bf d9 06 06 c0 e0 bd 82 bf
       -1.7313768 -1.4357786 -2.094168 -1.0214195
000350 db 6c 1b c0 dd c8 08 c0 85 be b7 bf e8 0d 48 bf
       -2.428519 -2.1372597 -1.4355017 -0.7814622
000360 54 8e 7a bf e9 58 8e bf 9f fd 09 bf 3c b4 3e bf
       -0.97873425 -1.1120883 -0.5390262 -0.74493766
000370 2c 63 bc bf e0 7b 95 bf 17 e3 2e c0 fa 9f ae bf
       -1.4717765 -1.1678429 -2.7326105 -1.3642571
000380 c1 c1 31 c0 3b 2f 04 c0 8f d7 ef bf 0a 97 dc bf
       -2.7774508 -2.0653827 -1.8737658 -1.7233593
000390 16 88 2c c0 9e 47 e0 bf f4 2c cc bf 8f d5 b1 bf
       -2.695806 -1.7521856 -1.5951219 -1.3893298
0003a0 77 be 00 c0 35 f8 93 bf 0c d7 d2 bf 20 0d 6a bf
       -2.011625 -1.1560122 -1.6471877 -0.9142628
0003b0 41 72 20 c0 84 cf b1 bf d8 8c bc bf e4 86 b5 bf
       -2.5069735 -1.3891454 -1.4730482 -1.418179
0003c0 13 2b cc bf 59 5d 9c bf 38 67 e9 bf 18 e2 57 be
       -1.5950645 -1.2215987 -1.8234625 -0.21082342
0003d0 4f 0f c8 bf 3b 83 9d bf ef da 5d bf f4 e8 a3 bf
       -1.5629672 -1.2305673 -0.8666219 -1.2805467
0003e0 9a 88 ac bf 33 bb 87 bf
       -1.3479187 -1.0604004
